web/public/ultraface-RFB-320-quant.onnx (onnx, 458144 bytes, 107 tensors)

473 f4 [1, 4420, 2]
000000 00 00 00 3d ab aa 2a 3d cd cc 4c 3d 89 88 88 3d
       0.03125 0.041666668 0.05 0.06666667
000010 9a 99 99 3d cd cc cc 3d 00 00 00 3d ab aa 2a 3d
       0.075 0.1 0.03125 0.041666668
000020 cd cc 4c 3d 89 88 88 3d 9a 99 99 3d cd cc cc 3d
       0.05 0.06666667 0.075 0.1
000030 00 00 00 3d ab aa 2a 3d cd cc 4c 3d 89 88 88 3d
       0.03125 0.041666668 0.05 0.06666667
000040 9a 99 99 3d cd cc cc 3d 00 00 00 3d ab aa 2a 3d
       0.075 0.1 0.03125 0.041666668
000050 cd cc 4c 3d 89 88 88 3d 9a 99 99 3d cd cc cc 3d
       0.05 0.06666667 0.075 0.1
000060 00 00 00 3d ab aa 2a 3d cd cc 4c 3d 89 88 88 3d
       0.03125 0.041666668 0.05 0.06666667
000070 9a 99 99 3d cd cc cc 3d 00 00 00 3d ab aa 2a 3d
       0.075 0.1 0.03125 0.041666668
000080 cd cc 4c 3d 89 88 88 3d 9a 99 99 3d cd cc cc 3d
       0.05 0.06666667 0.075 0.1
000090 00 00 00 3d ab aa 2a 3d cd cc 4c 3d 89 88 88 3d
       0.03125 0.041666668 0.05 0.06666667
0000a0 9a 99 99 3d cd cc cc 3d 00 00 00 3d ab aa 2a 3d
       0.075 0.1 0.03125 0.041666668
0000b0 cd cc 4c 3d 89 88 88 3d 9a 99 99 3d cd cc cc 3d
       0.05 0.06666667 0.075 0.1
0000c0 00 00 00 3d ab aa 2a 3d cd cc 4c 3d 89 88 88 3d
       0.03125 0.041666668 0.05 0.06666667
0000d0 9a 99 99 3d cd cc cc 3d 00 00 00 3d ab aa 2a 3d
       0.075 0.1 0.03125 0.041666668
0000e0 cd cc 4c 3d 89 88 88 3d 9a 99 99 3d cd cc cc 3d
       0.05 0.06666667 0.075 0.1
0000f0 00 00 00 3d ab aa 2a 3d cd cc 4c 3d 89 88 88 3d
       0.03125 0.041666668 0.05 0.06666667
000100 9a 99 99 3d cd cc cc 3d 00 00 00 3d ab aa 2a 3d
       0.075 0.1 0.03125 0.041666668
000110 cd cc 4c 3d 89 88 88 3d 9a 99 99 3d cd cc cc 3d
       0.05 0.06666667 0.075 0.1
000120 00 00 00 3d ab aa 2a 3d cd cc 4c 3d 89 88 88 3d
       0.03125 0.041666668 0.05 0.06666667
000130 9a 99 99 3d cd cc cc 3d 00 00 00 3d ab aa 2a 3d
       0.075 0.1 0.03125 0.041666668
000140 cd cc 4c 3d 89 88 88 3d 9a 99 99 3d cd cc cc 3d
       0.05 0.06666667 0.075 0.1
000150 00 00 00 3d ab aa 2a 3d cd cc 4c 3d 89 88 88 3d
       0.03125 0.041666668 0.05 0.06666667
000160 9a 99 99 3d cd cc cc 3d 00 00 00 3d ab aa 2a 3d
       0.075 0.1 0.03125 0.041666668
000170 cd cc 4c 3d 89 88 88 3d 9a 99 99 3d cd cc cc 3d
       0.05 0.06666667 0.075 0.1
000180 00 00 00 3d ab aa 2a 3d cd cc 4c 3d 89 88 88 3d
       0.03125 0.041666668 0.05 0.06666667
000190 9a 99 99 3d cd cc cc 3d 00 00 00 3d ab aa 2a 3d
       0.075 0.1 0.03125 0.041666668
0001a0 cd cc 4c 3d 89 88 88 3d 9a 99 99 3d cd cc cc 3d
       0.05 0.06666667 0.075 0.1
0001b0 00 00 00 3d ab aa 2a 3d cd cc 4c 3d 89 88 88 3d
       0.03125 0.041666668 0.05 0.06666667
0001c0 9a 99 99 3d cd cc cc 3d 00 00 00 3d ab aa 2a 3d
       0.075 0.1 0.03125 0.041666668
0001d0 cd cc 4c 3d 89 88 88 3d 9a 99 99 3d cd cc cc 3d
       0.05 0.06666667 0.075 0.1
0001e0 00 00 00 3d ab aa 2a 3d cd cc 4c 3d 89 88 88 3d
       0.03125 0.041666668 0.05 0.06666667
0001f0 9a 99 99 3d cd cc cc 3d 00 00 00 3d ab aa 2a 3d
       0.075 0.1 0.03125 0.041666668
000200 cd cc 4c 3d 89 88 88 3d 9a 99 99 3d cd cc cc 3d
       0.05 0.06666667 0.075 0.1
000210 00 00 00 3d ab aa 2a 3d cd cc 4c 3d 89 88 88 3d
       0.03125 0.041666668 0.05 0.06666667
000220 9a 99 99 3d cd cc cc 3d 00 00 00 3d ab aa 2a 3d
       0.075 0.1 0.03125 0.041666668
000230 cd cc 4c 3d 89 88 88 3d 9a 99 99 3d cd cc cc 3d
       0.05 0.06666667 0.075 0.1
000240 00 00 00 3d ab aa 2a 3d cd cc 4c 3d 89 88 88 3d
       0.03125 0.041666668 0.05 0.06666667
000250 9a 99 99 3d cd cc cc 3d 00 00 00 3d ab aa 2a 3d
       0.075 0.1 0.03125 0.041666668
000260 cd cc 4c 3d 89 88 88 3d 9a 99 99 3d cd cc cc 3d
       0.05 0.06666667 0.075 0.1
000270 00 00 00 3d ab aa 2a 3d cd cc 4c 3d 89 88 88 3d
       0.03125 0.041666668 0.05 0.06666667
000280 9a 99 99 3d cd cc cc 3d 00 00 00 3d ab aa 2a 3d
       0.075 0.1 0.03125 0.041666668
000290 cd cc 4c 3d 89 88 88 3d 9a 99 99 3d cd cc cc 3d
       0.05 0.06666667 0.075 0.1
0002a0 00 00 00 3d ab aa 2a 3d cd cc 4c 3d 89 88 88 3d
       0.03125 0.041666668 0.05 0.06666667
0002b0 9a 99 99 3d cd cc cc 3d 00 00 00 3d ab aa 2a 3d
       0.075 0.1 0.03125 0.041666668
0002c0 cd cc 4c 3d 89 88 88 3d 9a 99 99 3d cd cc cc 3d
       0.05 0.06666667 0.075 0.1
0002d0 00 00 00 3d ab aa 2a 3d cd cc 4c 3d 89 88 88 3d
       0.03125 0.041666668 0.05 0.06666667
0002e0 9a 99 99 3d cd cc cc 3d 00 00 00 3d ab aa 2a 3d
       0.075 0.1 0.03125 0.041666668
0002f0 cd cc 4c 3d 89 88 88 3d 9a 99 99 3d cd cc cc 3d
       0.05 0.06666667 0.075 0.1
000300 00 00 00 3d ab aa 2a 3d cd cc 4c 3d 89 88 88 3d
       0.03125 0.041666668 0.05 0.06666667
000310 9a 99 99 3d cd cc cc 3d 00 00 00 3d ab aa 2a 3d
       0.075 0.1 0.03125 0.041666668
000320 cd cc 4c 3d 89 88 88 3d 9a 99 99 3d cd cc cc 3d
       0.05 0.06666667 0.075 0.1
000330 00 00 00 3d ab aa 2a 3d cd cc 4c 3d 89 88 88 3d
       0.03125 0.041666668 0.05 0.06666667
000340 9a 99 99 3d cd cc cc 3d 00 00 00 3d ab aa 2a 3d
       0.075 0.1 0.03125 0.041666668
000350 cd cc 4c 3d 89 88 88 3d 9a 99 99 3d cd cc cc 3d
       0.05 0.06666667 0.075 0.1
000360 00 00 00 3d ab aa 2a 3d cd cc 4c 3d 89 88 88 3d
       0.03125 0.041666668 0.05 0.06666667
000370 9a 99 99 3d cd cc cc 3d 00 00 00 3d ab aa 2a 3d
       0.075 0.1 0.03125 0.041666668
000380 cd cc 4c 3d 89 88 88 3d 9a 99 99 3d cd cc cc 3d
       0.05 0.06666667 0.075 0.1
000390 00 00 00 3d ab aa 2a 3d cd cc 4c 3d 89 88 88 3d
       0.03125 0.041666668 0.05 0.06666667
0003a0 9a 99 99 3d cd cc cc 3d 00 00 00 3d ab aa 2a 3d
       0.075 0.1 0.03125 0.041666668
0003b0 cd cc 4c 3d 89 88 88 3d 9a 99 99 3d cd cc cc 3d
       0.05 0.06666667 0.075 0.1
0003c0 00 00 00 3d ab aa 2a 3d cd cc 4c 3d 89 88 88 3d
       0.03125 0.041666668 0.05 0.06666667
0003d0 9a 99 99 3d cd cc cc 3d 00 00 00 3d ab aa 2a 3d
       0.075 0.1 0.03125 0.041666668
0003e0 cd cc 4c 3d 89 88 88 3d 9a 99 99 3d cd cc cc 3d
       0.05 0.06666667 0.075 0.1
0003f0 00 00 00 3d ab aa 2a 3d cd cc 4c 3d 89 88 88 3d
       0.03125 0.041666668 0.05 0.06666667

465 f4 [1, 4420, 2]
000000 00 00 00 3d ab aa 2a 3d cd cc 4c 3d 89 88 88 3d
       0.03125 0.041666668 0.05 0.06666667
000010 9a 99 99 3d cd cc cc 3d 00 00 00 3d ab aa 2a 3d
       0.075 0.1 0.03125 0.041666668
000020 cd cc 4c 3d 89 88 88 3d 9a 99 99 3d cd cc cc 3d
       0.05 0.06666667 0.075 0.1
000030 00 00 00 3d ab aa 2a 3d cd cc 4c 3d 89 88 88 3d
       0.03125 0.041666668 0.05 0.06666667
000040 9a 99 99 3d cd cc cc 3d 00 00 00 3d ab aa 2a 3d
       0.075 0.1 0.03125 0.041666668
000050 cd cc 4c 3d 89 88 88 3d 9a 99 99 3d cd cc cc 3d
       0.05 0.06666667 0.075 0.1
000060 00 00 00 3d ab aa 2a 3d cd cc 4c 3d 89 88 88 3d
       0.03125 0.041666668 0.05 0.06666667
000070 9a 99 99 3d cd cc cc 3d 00 00 00 3d ab aa 2a 3d
       0.075 0.1 0.03125 0.041666668
000080 cd cc 4c 3d 89 88 88 3d 9a 99 99 3d cd cc cc 3d
       0.05 0.06666667 0.075 0.1
000090 00 00 00 3d ab aa 2a 3d cd cc 4c 3d 89 88 88 3d
       0.03125 0.041666668 0.05 0.06666667
0000a0 9a 99 99 3d cd cc cc 3d 00 00 00 3d ab aa 2a 3d
       0.075 0.1 0.03125 0.041666668
0000b0 cd cc 4c 3d 89 88 88 3d 9a 99 99 3d cd cc cc 3d
       0.05 0.06666667 0.075 0.1
0000c0 00 00 00 3d ab aa 2a 3d cd cc 4c 3d 89 88 88 3d
       0.03125 0.041666668 0.05 0.06666667
0000d0 9a 99 99 3d cd cc cc 3d 00 00 00 3d ab aa 2a 3d
       0.075 0.1 0.03125 0.041666668
0000e0 cd cc 4c 3d 89 88 88 3d 9a 99 99 3d cd cc cc 3d
       0.05 0.06666667 0.075 0.1
0000f0 00 00 00 3d ab aa 2a 3d cd cc 4c 3d 89 88 88 3d
       0.03125 0.041666668 0.05 0.06666667
000100 9a 99 99 3d cd cc cc 3d 00 00 00 3d ab aa 2a 3d
       0.075 0.1 0.03125 0.041666668
000110 cd cc 4c 3d 89 88 88 3d 9a 99 99 3d cd cc cc 3d
       0.05 0.06666667 0.075 0.1
000120 00 00 00 3d ab aa 2a 3d cd cc 4c 3d 89 88 88 3d
       0.03125 0.041666668 0.05 0.06666667
000130 9a 99 99 3d cd cc cc 3d 00 00 00 3d ab aa 2a 3d
       0.075 0.1 0.03125 0.041666668
000140 cd cc 4c 3d 89 88 88 3d 9a 99 99 3d cd cc cc 3d
       0.05 0.06666667 0.075 0.1
000150 00 00 00 3d ab aa 2a 3d cd cc 4c 3d 89 88 88 3d
       0.03125 0.041666668 0.05 0.06666667
000160 9a 99 99 3d cd cc cc 3d 00 00 00 3d ab aa 2a 3d
       0.075 0.1 0.03125 0.041666668
000170 cd cc 4c 3d 89 88 88 3d 9a 99 99 3d cd cc cc 3d
       0.05 0.06666667 0.075 0.1
000180 00 00 00 3d ab aa 2a 3d cd cc 4c 3d 89 88 88 3d
       0.03125 0.041666668 0.05 0.06666667
000190 9a 99 99 3d cd cc cc 3d 00 00 00 3d ab aa 2a 3d
       0.075 0.1 0.03125 0.041666668
0001a0 cd cc 4c 3d 89 88 88 3d 9a 99 99 3d cd cc cc 3d
       0.05 0.06666667 0.075 0.1
0001b0 00 00 00 3d ab aa 2a 3d cd cc 4c 3d 89 88 88 3d
       0.03125 0.041666668 0.05 0.06666667
0001c0 9a 99 99 3d cd cc cc 3d 00 00 00 3d ab aa 2a 3d
       0.075 0.1 0.03125 0.041666668
0001d0 cd cc 4c 3d 89 88 88 3d 9a 99 99 3d cd cc cc 3d
       0.05 0.06666667 0.075 0.1
0001e0 00 00 00 3d ab aa 2a 3d cd cc 4c 3d 89 88 88 3d
       0.03125 0.041666668 0.05 0.06666667
0001f0 9a 99 99 3d cd cc cc 3d 00 00 00 3d ab aa 2a 3d
       0.075 0.1 0.03125 0.041666668
000200 cd cc 4c 3d 89 88 88 3d 9a 99 99 3d cd cc cc 3d
       0.05 0.06666667 0.075 0.1
000210 00 00 00 3d ab aa 2a 3d cd cc 4c 3d 89 88 88 3d
       0.03125 0.041666668 0.05 0.06666667
000220 9a 99 99 3d cd cc cc 3d 00 00 00 3d ab aa 2a 3d
       0.075 0.1 0.03125 0.041666668
000230 cd cc 4c 3d 89 88 88 3d 9a 99 99 3d cd cc cc 3d
       0.05 0.06666667 0.075 0.1
000240 00 00 00 3d ab aa 2a 3d cd cc 4c 3d 89 88 88 3d
       0.03125 0.041666668 0.05 0.06666667
000250 9a 99 99 3d cd cc cc 3d 00 00 00 3d ab aa 2a 3d
       0.075 0.1 0.03125 0.041666668
000260 cd cc 4c 3d 89 88 88 3d 9a 99 99 3d cd cc cc 3d
       0.05 0.06666667 0.075 0.1
000270 00 00 00 3d ab aa 2a 3d cd cc 4c 3d 89 88 88 3d
       0.03125 0.041666668 0.05 0.06666667
000280 9a 99 99 3d cd cc cc 3d 00 00 00 3d ab aa 2a 3d
       0.075 0.1 0.03125 0.041666668
000290 cd cc 4c 3d 89 88 88 3d 9a 99 99 3d cd cc cc 3d
       0.05 0.06666667 0.075 0.1
0002a0 00 00 00 3d ab aa 2a 3d cd cc 4c 3d 89 88 88 3d
       0.03125 0.041666668 0.05 0.06666667
0002b0 9a 99 99 3d cd cc cc 3d 00 00 00 3d ab aa 2a 3d
       0.075 0.1 0.03125 0.041666668
0002c0 cd cc 4c 3d 89 88 88 3d 9a 99 99 3d cd cc cc 3d
       0.05 0.06666667 0.075 0.1
0002d0 00 00 00 3d ab aa 2a 3d cd cc 4c 3d 89 88 88 3d
       0.03125 0.041666668 0.05 0.06666667
0002e0 9a 99 99 3d cd cc cc 3d 00 00 00 3d ab aa 2a 3d
       0.075 0.1 0.03125 0.041666668
0002f0 cd cc 4c 3d 89 88 88 3d 9a 99 99 3d cd cc cc 3d
       0.05 0.06666667 0.075 0.1
000300 00 00 00 3d ab aa 2a 3d cd cc 4c 3d 89 88 88 3d
       0.03125 0.041666668 0.05 0.06666667
000310 9a 99 99 3d cd cc cc 3d 00 00 00 3d ab aa 2a 3d
       0.075 0.1 0.03125 0.041666668
000320 cd cc 4c 3d 89 88 88 3d 9a 99 99 3d cd cc cc 3d
       0.05 0.06666667 0.075 0.1
000330 00 00 00 3d ab aa 2a 3d cd cc 4c 3d 89 88 88 3d
       0.03125 0.041666668 0.05 0.06666667
000340 9a 99 99 3d cd cc cc 3d 00 00 00 3d ab aa 2a 3d
       0.075 0.1 0.03125 0.041666668
000350 cd cc 4c 3d 89 88 88 3d 9a 99 99 3d cd cc cc 3d
       0.05 0.06666667 0.075 0.1
000360 00 00 00 3d ab aa 2a 3d cd cc 4c 3d 89 88 88 3d
       0.03125 0.041666668 0.05 0.06666667
000370 9a 99 99 3d cd cc cc 3d 00 00 00 3d ab aa 2a 3d
       0.075 0.1 0.03125 0.041666668
000380 cd cc 4c 3d 89 88 88 3d 9a 99 99 3d cd cc cc 3d
       0.05 0.06666667 0.075 0.1
000390 00 00 00 3d ab aa 2a 3d cd cc 4c 3d 89 88 88 3d
       0.03125 0.041666668 0.05 0.06666667
0003a0 9a 99 99 3d cd cc cc 3d 00 00 00 3d ab aa 2a 3d
       0.075 0.1 0.03125 0.041666668
0003b0 cd cc 4c 3d 89 88 88 3d 9a 99 99 3d cd cc cc 3d
       0.05 0.06666667 0.075 0.1
0003c0 00 00 00 3d ab aa 2a 3d cd cc 4c 3d 89 88 88 3d
       0.03125 0.041666668 0.05 0.06666667
0003d0 9a 99 99 3d cd cc cc 3d 00 00 00 3d ab aa 2a 3d
       0.075 0.1 0.03125 0.041666668
0003e0 cd cc 4c 3d 89 88 88 3d 9a 99 99 3d cd cc cc 3d
       0.05 0.06666667 0.075 0.1
0003f0 00 00 00 3d ab aa 2a 3d cd cc 4c 3d 89 88 88 3d
       0.03125 0.041666668 0.05 0.06666667

467 f4 [1, 4420, 2]
000000 cd cc 4c 3c 89 88 88 3c cd cc 4c 3c 89 88 88 3c
       0.0125 0.016666668 0.0125 0.016666668
000010 cd cc 4c 3c 89 88 88 3c 9a 99 19 3d 89 88 88 3c
       0.0125 0.016666668 0.0375 0.016666668
000020 9a 99 19 3d 89 88 88 3c 9a 99 19 3d 89 88 88 3c
       0.0375 0.016666668 0.0375 0.016666668
000030 00 00 80 3d 89 88 88 3c 00 00 80 3d 89 88 88 3c
       0.0625 0.016666668 0.0625 0.016666668
000040 00 00 80 3d 89 88 88 3c 33 33 b3 3d 89 88 88 3c
       0.0625 0.016666668 0.0875 0.016666668
000050 33 33 b3 3d 89 88 88 3c 33 33 b3 3d 89 88 88 3c
       0.0875 0.016666668 0.0875 0.016666668
000060 66 66 e6 3d 89 88 88 3c 66 66 e6 3d 89 88 88 3c
       0.1125 0.016666668 0.1125 0.016666668
000070 66 66 e6 3d 89 88 88 3c cd cc 0c 3e 89 88 88 3c
       0.1125 0.016666668 0.1375 0.016666668
000080 cd cc 0c 3e 89 88 88 3c cd cc 0c 3e 89 88 88 3c
       0.1375 0.016666668 0.1375 0.016666668
000090 66 66 26 3e 89 88 88 3c 66 66 26 3e 89 88 88 3c
       0.1625 0.016666668 0.1625 0.016666668
0000a0 66 66 26 3e 89 88 88 3c 00 00 40 3e 89 88 88 3c
       0.1625 0.016666668 0.1875 0.016666668
0000b0 00 00 40 3e 89 88 88 3c 00 00 40 3e 89 88 88 3c
       0.1875 0.016666668 0.1875 0.016666668
0000c0 9a 99 59 3e 89 88 88 3c 9a 99 59 3e 89 88 88 3c
       0.2125 0.016666668 0.2125 0.016666668
0000d0 9a 99 59 3e 89 88 88 3c 33 33 73 3e 89 88 88 3c
       0.2125 0.016666668 0.2375 0.016666668
0000e0 33 33 73 3e 89 88 88 3c 33 33 73 3e 89 88 88 3c
       0.2375 0.016666668 0.2375 0.016666668
0000f0 66 66 86 3e 89 88 88 3c 66 66 86 3e 89 88 88 3c
       0.2625 0.016666668 0.2625 0.016666668
000100 66 66 86 3e 89 88 88 3c 33 33 93 3e 89 88 88 3c
       0.2625 0.016666668 0.2875 0.016666668
000110 33 33 93 3e 89 88 88 3c 33 33 93 3e 89 88 88 3c
       0.2875 0.016666668 0.2875 0.016666668
000120 00 00 a0 3e 89 88 88 3c 00 00 a0 3e 89 88 88 3c
       0.3125 0.016666668 0.3125 0.016666668
000130 00 00 a0 3e 89 88 88 3c cd cc ac 3e 89 88 88 3c
       0.3125 0.016666668 0.3375 0.016666668
000140 cd cc ac 3e 89 88 88 3c cd cc ac 3e 89 88 88 3c
       0.3375 0.016666668 0.3375 0.016666668
000150 9a 99 b9 3e 89 88 88 3c 9a 99 b9 3e 89 88 88 3c
       0.3625 0.016666668 0.3625 0.016666668
000160 9a 99 b9 3e 89 88 88 3c 66 66 c6 3e 89 88 88 3c
       0.3625 0.016666668 0.3875 0.016666668
000170 66 66 c6 3e 89 88 88 3c 66 66 c6 3e 89 88 88 3c
       0.3875 0.016666668 0.3875 0.016666668
000180 33 33 d3 3e 89 88 88 3c 33 33 d3 3e 89 88 88 3c
       0.4125 0.016666668 0.4125 0.016666668
000190 33 33 d3 3e 89 88 88 3c 00 00 e0 3e 89 88 88 3c
       0.4125 0.016666668 0.4375 0.016666668
0001a0 00 00 e0 3e 89 88 88 3c 00 00 e0 3e 89 88 88 3c
       0.4375 0.016666668 0.4375 0.016666668
0001b0 cd cc ec 3e 89 88 88 3c cd cc ec 3e 89 88 88 3c
       0.4625 0.016666668 0.4625 0.016666668
0001c0 cd cc ec 3e 89 88 88 3c 9a 99 f9 3e 89 88 88 3c
       0.4625 0.016666668 0.4875 0.016666668
0001d0 9a 99 f9 3e 89 88 88 3c 9a 99 f9 3e 89 88 88 3c
       0.4875 0.016666668 0.4875 0.016666668
0001e0 33 33 03 3f 89 88 88 3c 33 33 03 3f 89 88 88 3c
       0.5125 0.016666668 0.5125 0.016666668
0001f0 33 33 03 3f 89 88 88 3c 9a 99 09 3f 89 88 88 3c
       0.5125 0.016666668 0.5375 0.016666668
000200 9a 99 09 3f 89 88 88 3c 9a 99 09 3f 89 88 88 3c
       0.5375 0.016666668 0.5375 0.016666668
000210 00 00 10 3f 89 88 88 3c 00 00 10 3f 89 88 88 3c
       0.5625 0.016666668 0.5625 0.016666668
000220 00 00 10 3f 89 88 88 3c 66 66 16 3f 89 88 88 3c
       0.5625 0.016666668 0.5875 0.016666668
000230 66 66 16 3f 89 88 88 3c 66 66 16 3f 89 88 88 3c
       0.5875 0.016666668 0.5875 0.016666668
000240 cd cc 1c 3f 89 88 88 3c cd cc 1c 3f 89 88 88 3c
       0.6125 0.016666668 0.6125 0.016666668
000250 cd cc 1c 3f 89 88 88 3c 33 33 23 3f 89 88 88 3c
       0.6125 0.016666668 0.6375 0.016666668
000260 33 33 23 3f 89 88 88 3c 33 33 23 3f 89 88 88 3c
       0.6375 0.016666668 0.6375 0.016666668
000270 9a 99 29 3f 89 88 88 3c 9a 99 29 3f 89 88 88 3c
       0.6625 0.016666668 0.6625 0.016666668
000280 9a 99 29 3f 89 88 88 3c 00 00 30 3f 89 88 88 3c
       0.6625 0.016666668 0.6875 0.016666668
000290 00 00 30 3f 89 88 88 3c 00 00 30 3f 89 88 88 3c
       0.6875 0.016666668 0.6875 0.016666668
0002a0 66 66 36 3f 89 88 88 3c 66 66 36 3f 89 88 88 3c
       0.7125 0.016666668 0.7125 0.016666668
0002b0 66 66 36 3f 89 88 88 3c cd cc 3c 3f 89 88 88 3c
       0.7125 0.016666668 0.7375 0.016666668
0002c0 cd cc 3c 3f 89 88 88 3c cd cc 3c 3f 89 88 88 3c
       0.7375 0.016666668 0.7375 0.016666668
0002d0 33 33 43 3f 89 88 88 3c 33 33 43 3f 89 88 88 3c
       0.7625 0.016666668 0.7625 0.016666668
0002e0 33 33 43 3f 89 88 88 3c 9a 99 49 3f 89 88 88 3c
       0.7625 0.016666668 0.7875 0.016666668
0002f0 9a 99 49 3f 89 88 88 3c 9a 99 49 3f 89 88 88 3c
       0.7875 0.016666668 0.7875 0.016666668
000300 00 00 50 3f 89 88 88 3c 00 00 50 3f 89 88 88 3c
       0.8125 0.016666668 0.8125 0.016666668
000310 00 00 50 3f 89 88 88 3c 66 66 56 3f 89 88 88 3c
       0.8125 0.016666668 0.8375 0.016666668
000320 66 66 56 3f 89 88 88 3c 66 66 56 3f 89 88 88 3c
       0.8375 0.016666668 0.8375 0.016666668
000330 cd cc 5c 3f 89 88 88 3c cd cc 5c 3f 89 88 88 3c
       0.8625 0.016666668 0.8625 0.016666668
000340 cd cc 5c 3f 89 88 88 3c 33 33 63 3f 89 88 88 3c
       0.8625 0.016666668 0.8875 0.016666668
000350 33 33 63 3f 89 88 88 3c 33 33 63 3f 89 88 88 3c
       0.8875 0.016666668 0.8875 0.016666668
000360 9a 99 69 3f 89 88 88 3c 9a 99 69 3f 89 88 88 3c
       0.9125 0.016666668 0.9125 0.016666668
000370 9a 99 69 3f 89 88 88 3c 00 00 70 3f 89 88 88 3c
       0.9125 0.016666668 0.9375 0.016666668
000380 00 00 70 3f 89 88 88 3c 00 00 70 3f 89 88 88 3c
       0.9375 0.016666668 0.9375 0.016666668
000390 66 66 76 3f 89 88 88 3c 66 66 76 3f 89 88 88 3c
       0.9625 0.016666668 0.9625 0.016666668
0003a0 66 66 76 3f 89 88 88 3c cd cc 7c 3f 89 88 88 3c
       0.9625 0.016666668 0.9875 0.016666668
0003b0 cd cc 7c 3f 89 88 88 3c cd cc 7c 3f 89 88 88 3c
       0.9875 0.016666668 0.9875 0.016666668
0003c0 cd cc 4c 3c cd cc 4c 3d cd cc 4c 3c cd cc 4c 3d
       0.0125 0.05 0.0125 0.05
0003d0 cd cc 4c 3c cd cc 4c 3d 9a 99 19 3d cd cc 4c 3d
       0.0125 0.05 0.0375 0.05
0003e0 9a 99 19 3d cd cc 4c 3d 9a 99 19 3d cd cc 4c 3d
       0.0375 0.05 0.0375 0.05
0003f0 00 00 80 3d cd cc 4c 3d 00 00 80 3d cd cc 4c 3d
       0.0625 0.05 0.0625 0.05

ConvBnFusion_W_base_net.0.0.weight_quantized i1 [16, 3, 3, 3]
000000 8e 81 9c 98 83 a3 9b 85 9c 49 47 3c 44 49 39 39
       -114 -127 -100 -104 -125 -93 -101 -123 -100 73 71 60 68 73 57 57
000010 3d 2e 31 30 2a 29 35 2b 31 39 36 1f f7 81 f8 09
       61 46 49 48 42 41 53 43 49 57 54 31 -9 -127 -8 9
000020 ee fd fd 0f 15 ee 89 01 05 f2 07 f6 07 20 e4 84
       -18 -3 -3 15 21 -18 -119 1 5 -14 7 -10 7 32 -28 -124
000030 01 fc ea 11 f7 0b 40 81 0d 76 87 10 44 e6 eb 23
       1 -4 -22 17 -9 11 64 -127 13 118 -121 16 68 -26 -21 35
000040 b2 10 57 ac 14 25 fa f4 19 af 13 57 b2 1f 14 ed
       -78 16 87 -84 20 37 -6 -12 25 -81 19 87 -78 31 20 -19
000050 01 37 01 f2 31 81 09 f6 e1 45 24 07 f7 1d 8a 01
       1 55 1 -14 49 -127 9 -10 -31 69 36 7 -9 29 -118 1
000060 ff f0 3d 13 07 fd 19 af 06 03 f4 21 90 7b 03 4b
       -1 -16 61 19 7 -3 25 -81 6 3 -12 33 -112 123 3 75
000070 7f 95 18 c3 c7 a9 54 0b 43 59 ab 0c c4 e9 aa 45
       127 -107 24 -61 -57 -87 84 11 67 89 -85 12 -60 -23 -86 69
000080 11 32 45 be 0b d1 f2 58 03 d2 7f 39 e6 f6 16 17
       17 50 69 -66 11 -47 -14 88 3 -46 127 57 -26 -10 22 23
000090 61 3a ec 4b 3c e1 ce f5 0a 55 17 cd 41 27 cf e1
       97 58 -20 75 60 -31 -50 -11 10 85 23 -51 65 39 -49 -31
0000a0 0c 22 0b 17 0c 13 38 16 28 44 2c 1c 1f 10 27 30
       12 34 11 23 12 19 56 22 40 68 44 28 31 16 39 48
0000b0 24 34 37 29 e2 c7 e2 c2 99 ca a9 81 aa c8 a9 cd
       36 52 55 41 -30 -57 -30 -62 -103 -54 -87 -127 -86 -56 -87 -51
0000c0 4f 7f 44 e5 de f2 da b8 d9 38 6b 30 ea e0 f3 df
       79 127 68 -27 -34 -14 -38 -72 -39 56 107 48 -22 -32 -13 -33
0000d0 b9 e3 37 5f 31 ee dc f5 66 7f 44 c9 c4 df f4 f7
       -71 -29 55 95 49 -18 -36 -11 102 127 68 -55 -60 -33 -12 -9
0000e0 db 59 63 29 da b9 f7 f1 d9 f3 4f 50 16 dd c2 f7
       -37 89 99 41 -38 -71 -9 -15 -39 -13 79 80 22 -35 -62 -9
0000f0 ef d7 f4 06 1c 04 22 d4 11 0a 81 42 14 25 07 20
       -17 -41 -12 6 28 4 34 -44 17 10 -127 66 20 37 7 32

ConvBnFusion_W_base_net.0.0.weight_scale f4 [16]
000000 55 6f 20 3b 23 38 28 3b 8c 3d 29 3b 6f 4f 14 3b
       0.0024480422 0.0025668226 0.0025824038 0.0022630354
000010 f9 35 cb 3a cd 63 21 3a 37 34 a6 3b 02 30 04 3b
       0.0015503756 0.0006156534 0.0050721425 0.0020170216
000020 d1 e1 a2 3a cb cf 8b 3b b5 ac f6 39 81 56 ca 3a
       0.0012426918 0.004266714 0.00047049453 0.0015437157
000030 04 07 89 3b e4 85 00 3b 5d 4d 4f 3b 7f aa 16 3a
       0.0041817445 0.0019611055 0.0031631805 0.0005747452

ConvBnFusion_W_base_net.1.0.weight_quantized i1 [16, 1, 3, 3]
000000 db dd e0 17 7f 14 e8 1e e9 e6 e9 f5 ca d2 f5 55
       -37 -35 -32 23 127 20 -24 30 -23 -26 -23 -11 -54 -46 -11 85
000010 7f e7 f6 f4 fc f5 7f d9 fd fd ee f0 31 03 08 81
       127 -25 -10 -12 -4 -11 127 -39 -3 -3 -18 -16 49 3 8 -127
000020 0f 0e 0c 01 ff 1b 05 17 81 16 07 0b fd 02 c6 d1
       15 14 12 1 -1 27 5 23 -127 22 7 11 -3 2 -58 -47
000030 f6 2a cb fa 7f 27 fc 2c 01 14 81 0d ff 1b 00 05
       -10 42 -53 -6 127 39 -4 44 1 20 -127 13 -1 27 0 5
000040 08 05 02 81 fd 04 fe 04 0a 00 07 fb 81 fc f9 76
       8 5 2 -127 -3 4 -2 4 10 0 7 -5 -127 -4 -7 118
000050 f9 fe e7 09 ea 7f ea f3 fa f7 30 02 d0 7f a7 ca
       -7 -2 -25 9 -22 127 -22 -13 -6 -9 48 2 -48 127 -89 -54
000060 e8 14 0c 10 fa 02 f1 81 11 04 0b 08 f5 d3 f7 fc
       -24 20 12 16 -6 2 -15 -127 17 4 11 8 -11 -45 -9 -4
000070 7f fd f4 fd f4 01 11 02 01 81 02 02 f8 03 e4 f4
       127 -3 -12 -3 -12 1 17 2 1 -127 2 2 -8 3 -28 -12
000080 0e 7f a5 f1 d6 44 02 35 5a 04 1e 2d df cb 81 0d
       14 127 -91 -15 -42 68 2 53 90 4 30 45 -33 -53 -127 13

ConvBnFusion_W_base_net.1.0.weight_scale f4 [16]
000000 bb 49 91 3c d3 94 9a 3c 53 37 c2 3c 8a a8 18 3d
       0.017735353 0.018869793 0.023708021 0.037270106
000010 1c b4 10 3d 8a 4f a8 3c c1 d3 c6 3c ef 02 28 3d
       0.035328016 0.02054574 0.024270894 0.041018423
000020 c4 e5 fc 3c cb 1d ae 3c 08 bf fb 3c 4d be 16 3d
       0.03087128 0.02125444 0.03073074 0.03680258
000030 e3 69 af 3c 19 f7 23 3d 97 89 28 3c 6a c1 cb 3c
       0.021412795 0.040030573 0.01028671 0.0248725

ConvBnFusion_W_base_net.1.3.weight_quantized i1 [32, 16, 1, 1]
000000 02 20 7a 18 d0 db f3 0a d8 82 6a 7f 06 dc 52 f1
       2 32 122 24 -48 -37 -13 10 -40 -126 106 127 6 -36 82 -15
000010 3f e9 f9 f9 fc e9 81 ff fd fb f5 0f 5e 04 fc e6
       63 -23 -7 -7 -4 -23 -127 -1 -3 -5 -11 15 94 4 -4 -26
000020 85 1e 04 04 0a 1c 7c fc 06 0d f9 fc 81 ff fd 11
       -123 30 4 4 10 28 124 -4 6 13 -7 -4 -127 -1 -3 17
000030 fd 06 0f d2 df ea fb f5 ee fd ed 08 03 b8 81 ee
       -3 6 15 -46 -33 -22 -5 -11 -18 -3 -19 8 3 -72 -127 -18
000040 fd f7 c0 f8 07 44 fb fc f9 f7 eb df 03 f0 05 81
       -3 -9 -64 -8 7 68 -5 -4 -7 -9 -21 -33 3 -16 5 -127
000050 81 e2 07 10 06 14 2e 04 13 f8 ff f8 a3 0b 23 15
       -127 -30 7 16 6 20 46 4 19 -8 -1 -8 -93 11 35 21
000060 07 14 fe 0a 06 11 7f 01 05 02 05 fe 06 01 06 03
       7 20 -2 10 6 17 127 1 5 2 5 -2 6 1 6 3
000070 fb 35 d9 e5 db bd 02 7b c2 0a fb e8 09 7f 0b d9
       -5 53 -39 -27 -37 -67 2 123 -62 10 -5 -24 9 127 11 -39
000080 1d 01 09 32 0e fc ce 9a 83 20 2f 15 17 81 ec d1
       29 1 9 50 14 -4 -50 -102 -125 32 47 21 23 -127 -20 -47
000090 11 c9 fe fa dc 3c e7 81 0f bc 07 f7 0e ca 1a 9b
       17 -55 -2 -6 -36 60 -25 -127 15 -68 7 -9 14 -54 26 -101
0000a0 01 e4 02 df d8 07 ff d9 00 d6 81 17 fe ee 29 ef
       1 -28 2 -33 -40 7 -1 -39 0 -42 -127 23 -2 -18 41 -17
0000b0 f2 25 54 7f 52 fe 0d 91 b3 3e 30 36 05 8d 42 d2
       -14 37 84 127 82 -2 13 -111 -77 62 48 54 5 -115 66 -46
0000c0 7f e9 ff f2 ed f5 ba 07 10 f5 f9 01 43 0f fe f1
       127 -23 -1 -14 -19 -11 -70 7 16 -11 -7 1 67 15 -2 -15
0000d0 02 3c ef 25 06 09 ff bb 81 31 0d fa 01 fb 09 44
       2 60 -17 37 6 9 -1 -69 -127 49 13 -6 1 -5 9 68
0000e0 21 c3 0f 10 02 2b db b5 02 d5 ff fc 1c a2 12 81
       33 -61 15 16 2 43 -37 -75 2 -43 -1 -4 28 -94 18 -127
0000f0 03 15 a0 f8 bd 9f f9 d8 cb de 62 81 02 f4 3d ef
       3 21 -96 -8 -67 -97 -7 -40 -53 -34 98 -127 2 -12 61 -17

ConvBnFusion_W_base_net.1.3.weight_scale f4 [32]
000000 ee 30 8f 3b 7e 4a 43 3b 63 62 4f 3b 42 e1 f9 3b
       0.0043698465 0.002979904 0.0031644336 0.00762573
000010 5c a9 e2 3b 6d 5e f4 3b e9 23 04 3c d3 96 a1 3b
       0.006917162 0.0074575455 0.008065202 0.0049313097
000020 69 36 99 3a 41 09 8f 3b 33 c2 f3 3b 04 0c 39 3b
       0.0011689189 0.004365117 0.007438922 0.0028235922
000030 fc 77 b2 3b ec 3f 6c 3b 13 a9 4c 3b 1e b9 97 3b
       0.005446432 0.0036048843 0.0031228706 0.004630222
000040 0e 91 ad 3b e4 2d 23 3c a2 7d f2 3b bb bb 29 3b
       0.005296833 0.009959672 0.0074002305 0.002589925
000050 9e 45 22 3c 17 78 ad 3a 5c de b6 3b f3 19 a9 3b
       0.009904293 0.0013234642 0.0055807065 0.005160564
000060 d3 a2 b9 3b 6d 61 89 3b c8 77 bc 3a 37 a1 9e 3b
       0.005665162 0.0041925223 0.0014378959 0.0048409957
000070 45 92 4e 3b 48 6e ba 3b af b4 35 3b aa b9 86 3b
       0.003152029 0.005689416 0.0027726104 0.0041114883

ConvBnFusion_W_base_net.2.0.weight_quantized i1 [32, 1, 3, 3]
000000 33 41 1e 68 7f 27 3e 4c 0c 19 d6 cc 7b fa 81 56
       51 65 30 104 127 39 62 76 12 25 -42 -52 123 -6 -127 86
000010 21 87 31 47 20 02 27 29 a4 81 fc 3e 4b 12 4b 7f
       33 -121 49 71 32 2 39 41 -92 -127 -4 62 75 18 75 127
000020 4c 0d 45 38 2d 5a 2e 4e 7f 39 42 5d 14 21 3e 32
       76 13 69 56 45 90 46 78 127 57 66 93 20 33 62 50
000030 41 7f 4c 44 5b 2f 20 43 2b 2f 7f 55 2a 4e 2d 1f
       65 127 76 68 91 47 32 67 43 47 127 85 42 78 45 31
000040 37 2b 3d 7f 58 14 35 19 7f 45 cf 7a 1f 99 12 e8
       55 43 61 127 88 20 53 25 127 69 -49 122 31 -103 18 -24
000050 cc 01 0a 18 39 72 4d 41 7f 54 37 77 58 21 7f 6e
       -52 1 10 24 57 114 77 65 127 84 55 119 88 33 127 110
000060 e1 1c 39 1d e3 b6 29 81 83 21 97 99 1c ca d7 e6
       -31 28 57 29 -29 -74 41 -127 -125 33 -105 -103 28 -54 -41 -26
000070 81 ab 04 1a 20 04 f6 fb 17 26 14 aa 81 c7 25 29
       -127 -85 4 26 32 4 -10 -5 23 38 20 -86 -127 -57 37 41
000080 1d 17 22 1b ce 81 b8 37 4e 34 5c 7f 45 2a 56 30
       29 23 34 27 -50 -127 -72 55 78 52 92 127 69 42 86 48
000090 eb e0 f5 9c 81 b8 d0 8f b1 f4 bb ca c6 81 c2 c7
       -21 -32 -11 -100 -127 -72 -48 -113 -79 -12 -69 -54 -58 -127 -62 -57
0000a0 b7 ed d4 ca f0 b4 81 c9 bd a6 df b1 18 55 a6 be
       -73 -19 -44 -54 -16 -76 -127 -55 -67 -90 -33 -79 24 85 -90 -66
0000b0 7f f6 be 27 d6 b7 cb c8 81 9b ce 93 b5 bf 81 cb
       127 -10 -66 39 -42 -73 -53 -56 -127 -101 -50 -109 -75 -65 -127 -53
0000c0 02 18 17 1f 45 1f f1 f6 19 ae 81 cb e4 8b 90 ee
       2 24 23 31 69 31 -15 -10 25 -82 -127 -53 -28 -117 -112 -18
0000d0 c8 d0 cc 81 a9 d5 c5 d9 2a 4f 2b 4b 7f 49 2a 47
       -56 -48 -52 -127 -87 -43 -59 -39 42 79 43 75 127 73 42 71
0000e0 2e 1d 3f 45 4d 7d 6f 5e 7f 44 9a 81 dd d4 e0 0b
       46 29 63 69 77 125 111 94 127 68 -102 -127 -35 -44 -32 11
0000f0 4b 6a 29 1a 2f 2f 42 7f 40 36 51 1c 19 31 22 b5
       75 106 41 26 47 47 66 127 64 54 81 28 25 49 34 -75

ConvBnFusion_W_base_net.2.0.weight_scale f4 [32]
000000 b3 3c 82 3b 1d 68 35 3c 49 94 5e 3c 5e fc f9 3b
       0.003974521 0.011072186 0.013585159 0.0076289615
000010 f9 60 c8 3b 9d 12 82 3b ab 4f 57 3b 43 e6 5a 3b
       0.0061150757 0.003969504 0.0032853882 0.0033401407
000020 d4 66 50 3c c3 23 ac 3b 07 fe b8 3b 32 62 a0 3b
       0.012719829 0.0052532866 0.005645517 0.0048945183
000030 ea ff cc 3b b5 22 16 3c fa 4b 5b 3c 75 11 ce 3b
       0.0062560933 0.009163548 0.013384813 0.006288702
000040 14 b7 b3 3b 6a 30 02 3c df cc 99 3b 3a 82 74 3c
       0.005484471 0.007946113 0.004693612 0.014923627
000050 4a d7 89 3b ab be 7a 3c 8c ca 9c 3b 6c 23 e6 3b
       0.0042065727 0.015304248 0.0047848877 0.0070232656
000060 ec f9 9d 3b e3 db 8d 3b 7c c4 26 3c 0a c6 c6 3b
       0.004821053 0.004329191 0.010178681 0.0060660886
000070 71 90 16 3c 20 58 de 3b 00 59 45 3c 78 d5 a9 3b
       0.009189711 0.0067854077 0.012045145 0.005182918

ConvBnFusion_W_base_net.2.3.weight_quantized i1 [32, 32, 1, 1]
000000 0e af 7f 0b 4a 38 4b 5d be 7f f9 03 0e 68 53 cd
       14 -81 127 11 74 56 75 93 -66 127 -7 3 14 104 83 -51
000010 f9 d5 e2 df df 2e d7 a8 3a 4f 54 22 26 f2 1d 76
       -7 -43 -30 -33 -33 46 -41 -88 58 79 84 34 38 -14 29 118
000020 1d f6 d9 f9 16 fc ff bf ef 81 fd 09 f3 c1 fe ef
       29 -10 -39 -7 22 -4 -1 -65 -17 -127 -3 9 -13 -63 -2 -17
000030 f5 f3 eb e8 08 c9 ab f0 d2 fd d6 e6 c7 de f4 48
       -11 -13 -21 -24 8 -55 -85 -16 -46 -3 -42 -26 -57 -34 -12 72
000040 e9 19 e7 f5 ad f5 f3 ef 2d f3 7f 01 04 fd ff 61
       -23 25 -25 -11 -83 -11 -13 -17 45 -13 127 1 4 -3 -1 97
000050 d8 e9 29 76 0d ef 05 00 46 f6 fa 16 fd 3c 03 f9
       -40 -23 41 118 13 -17 5 0 70 -10 -6 22 -3 60 3 -7
000060 32 4f 0f 72 04 e0 0e 23 f4 30 6a e9 2c f2 0b 65
       50 79 15 114 4 -32 14 35 -12 48 106 -23 44 -14 11 101
000070 33 81 f3 20 ec ef f1 19 c0 e5 dd 99 f0 3d f1 f7
       51 -127 -13 32 -20 -17 -15 25 -64 -27 -35 -103 -16 61 -15 -9
000080 d6 0e 2a 15 65 d6 e9 d3 eb 7f f8 f7 e1 df 1f 25
       -42 14 42 21 101 -42 -23 -45 -21 127 -8 -9 -31 -33 31 37
000090 06 f0 15 e6 1a 1e 42 62 00 fb cf 36 e3 fa 1b aa
       6 -16 21 -26 26 30 66 98 0 -5 -49 54 -29 -6 27 -86
0000a0 7f 09 fa e6 f8 18 0b f4 29 cf e7 c5 1c e9 e6 ea
       127 9 -6 -26 -8 24 11 -12 41 -49 -25 -59 28 -23 -26 -22
0000b0 9b ec 8d 21 ef 06 04 34 0c 05 f7 ea da d6 ff f7
       -101 -20 -115 33 -17 6 4 52 12 5 -9 -22 -38 -42 -1 -9
0000c0 2e 6b 0c 41 1a f1 f6 f6 3a f2 28 81 e9 e3 e7 f6
       46 107 12 65 26 -15 -10 -10 58 -14 40 -127 -23 -29 -25 -10
0000d0 95 c8 d2 35 fc 1f d5 15 20 0d 00 23 f4 a7 31 e2
       -107 -56 -46 53 -4 31 -43 21 32 13 0 35 -12 -89 49 -30
0000e0 33 23 0e 0f c8 e4 c4 f5 08 44 25 22 81 e8 19 32
       51 35 14 15 -56 -28 -60 -11 8 68 37 34 -127 -24 25 50
0000f0 05 d6 f3 08 6f eb 19 db a3 e8 27 c0 fe 0f 82 f6
       5 -42 -13 8 111 -21 25 -37 -93 -24 39 -64 -2 15 -126 -10

ConvBnFusion_W_base_net.2.3.weight_scale f4 [32]
000000 5e 6f 65 3a 04 f9 8b 3b 30 b1 5d 3b 69 51 e2 3a
       0.0008752252 0.0042716283 0.0033827536 0.0017266694
000010 8c 86 2a 3b 09 6e d8 3a 28 00 b3 3a 97 2e 0e 3b
       0.0026020138 0.0016512285 0.0013656663 0.002169525
000020 e9 f9 22 3b 64 50 83 3a 66 39 1e 3b 3d 52 34 3b
       0.0024868196 0.0010018465 0.00241431 0.0027514838
000030 f3 00 63 3b ca da 98 3a 7a 9d ea 3a 48 25 2f 3b
       0.0034638017 0.0011661884 0.0017899715 0.0026725102
000040 8c ee 81 3b ce 16 2d 3b 70 7e 31 3b ad 77 8b 3a
       0.0039652046 0.0026411298 0.002708342 0.0010640525
000050 52 f8 e9 3a 75 9b b2 3a c7 79 69 3a e6 40 d4 3a
       0.0017850494 0.0013626652 0.0008906391 0.0016193658
000060 27 3a ca 3b 79 25 b7 3a 80 2a 59 3b 2d 95 2b 3b
       0.006171483 0.001397296 0.0033136904 0.0026181445
000070 6b b3 1a 3b 47 7d d4 3a b0 40 79 3b ba d5 8e 3b
       0.0023605477 0.0016211652 0.0038032942 0.0043589743

ConvBnFusion_W_base_net.3.0.weight_quantized i1 [32, 1, 3, 3]
000000 0e 31 13 22 81 a8 04 09 13 f4 b1 d9 dd e9 ff e7
       14 49 19 34 -127 -88 4 9 19 -12 -79 -39 -35 -23 -1 -25
000010 81 c7 fe e6 3b c7 81 ad ec bb e6 3b eb cf 30 81
       -127 -57 -2 -26 59 -57 -127 -83 -20 -69 -26 59 -21 -49 48 -127
000020 b9 d8 15 1d 01 c0 ef e6 72 e2 fb 7f 10 0d 21 0e
       -71 -40 21 29 1 -64 -17 -26 114 -30 -5 127 16 13 33 14
000030 f3 81 fb 0a fd 0a f8 11 f1 05 7f f5 db 19 db 2a
       -13 -127 -5 10 -3 10 -8 17 -15 5 127 -11 -37 25 -37 42
000040 a7 a0 b2 81 5c db 76 54 01 a8 09 f5 81 ed 1f 20
       -89 -96 -78 -127 92 -37 118 84 1 -88 9 -11 -127 -19 31 32
000050 1b f9 e8 fa ff b2 eb 09 7f 00 24 e0 33 45 81 51
       27 -7 -24 -6 -1 -78 -21 9 127 0 36 -32 51 69 -127 81
000060 22 9c 14 ff 7f 26 f6 a5 d3 fb 06 01 f5 e2 eb 17
       34 -100 20 -1 127 38 -10 -91 -45 -5 6 1 -11 -30 -21 23
000070 7f 27 f1 bb e6 02 7f 13 fa b5 e2 05 00 09 12 5a
       127 39 -15 -69 -26 2 127 19 -6 -75 -30 5 0 9 18 90
000080 ce 81 e8 60 ec d2 22 14 25 36 1a 7f 50 ff 03 08
       -50 -127 -24 96 -20 -46 34 20 37 54 26 127 80 -1 3 8
000090 d5 33 55 d8 fe e9 19 7f e3 00 c8 c4 e8 c6 c4 27
       -43 51 85 -40 -2 -23 25 127 -29 0 -56 -60 -24 -58 -60 39
0000a0 7f 70 06 5a 0e e2 7f 2a c6 ff 1c ff be f8 e9 d1
       127 112 6 90 14 -30 127 42 -58 -1 28 -1 -66 -8 -23 -47
0000b0 f3 13 7f 16 0c 0c f8 7f cc e8 25 d7 ee f2 9c 49
       -13 19 127 22 12 12 -8 127 -52 -24 37 -41 -18 -14 -100 73
0000c0 ca 7f d7 05 0c ff 13 d1 11 0f d9 7f ed 15 fb e7
       -54 127 -41 5 12 -1 19 -47 17 15 -39 127 -19 21 -5 -25
0000d0 7f dc f3 09 f1 24 b3 42 27 fe e1 fc 7f 4a 04 22
       127 -36 -13 9 -15 36 -77 66 39 -2 -31 -4 127 74 4 34
0000e0 33 f9 ff ef e8 7f e4 f9 0f f8 06 d8 fa 4e 81 40
       51 -7 -1 -17 -24 127 -28 -7 15 -8 6 -40 -6 78 -127 64
0000f0 1a b8 0a f8 3b 17 d2 b3 7f 08 ec b0 07 f5 0f 11
       26 -72 10 -8 59 23 -46 -77 127 8 -20 -80 7 -11 15 17

ConvBnFusion_W_base_net.3.0.weight_scale f4 [32]
000000 35 67 c4 3c 98 83 d4 3b 1b 08 e0 3b 1a 22 37 3c
       0.023974994 0.0064854138 0.0068369037 0.011177564
000010 53 48 04 3c 9c 51 27 3d 67 20 a0 3c 47 bc 18 3c
       0.008073884 0.040849313 0.0195467 0.009322233
000020 00 37 1f 3c b4 e5 1b 3d 92 1a 4d 3c 47 74 6a 3c
       0.009717703 0.03806086 0.012518542 0.014309949
000030 d7 2f 2b 3c 55 a5 fd 3c 1a 47 2b 3c 3c b1 d2 3b
       0.010448418 0.030962626 0.010453964 0.0064298194
000040 fa 04 0d 3c 16 eb 04 3c 64 1d 0e 3c 19 4a 13 3d
       0.008607144 0.0081126895 0.008673999 0.035959337
000050 1b 60 d2 3c 58 b5 ef 3c 7e 70 0b 3d a7 23 73 3c
       0.025680592 0.029261276 0.034042828 0.014840043
000060 f0 7d 16 3c 2c cb db 3c 08 ef 7d 3c 23 cb 35 3c
       0.009185299 0.026830278 0.015498884 0.011095795
000070 2f c8 08 3d 1a 00 a4 3c 4a 37 44 3c 38 8d 78 3c
       0.033394035 0.02001958 0.011976073 0.015170388

ConvBnFusion_W_base_net.3.3.weight_quantized i1 [32, 32, 1, 1]
000000 0a f1 05 18 07 81 44 36 14 fe 0a e8 ec d9 4b dd
       10 -15 5 24 7 -127 68 54 20 -2 10 -24 -20 -39 75 -35
000010 4a f8 e6 d2 f3 15 d1 e3 e4 1c 2c f6 11 27 cb 0d
       74 -8 -26 -46 -13 21 -47 -29 -28 28 44 -10 17 39 -53 13
000020 13 e7 e4 a6 30 10 15 ac ff 48 f9 f2 e4 1b f8 fe
       19 -25 -28 -90 48 16 21 -84 -1 72 -7 -14 -28 27 -8 -2
000030 06 4a 81 f6 eb da 0b c9 1c ef 2f 1d 47 0e 09 0e
       6 74 -127 -10 -21 -38 11 -55 28 -17 47 29 71 14 9 14
000040 e6 b5 fc c4 dc 8b 99 e3 3c 8f 1f 81 28 49 f7 b7
       -26 -75 -4 -60 -36 -117 -103 -29 60 -113 31 -127 40 73 -9 -73
000050 be d3 56 92 ef f9 69 78 b8 77 32 f6 fa dd 70 21
       -66 -45 86 -110 -17 -7 105 120 -72 119 50 -10 -6 -35 112 33
000060 99 ca cc 09 25 05 1a 39 fa 01 fa ea d5 ea 03 d2
       -103 -54 -52 9 37 5 26 57 -6 1 -6 -22 -43 -22 3 -46
000070 27 05 59 18 12 7f 1a ae d0 d3 24 01 df 00 14 31
       39 5 89 24 18 127 26 -82 -48 -45 36 1 -33 0 20 49
000080 39 ee c1 28 f3 03 12 0f 57 fd f9 c4 ff 1b 3e 0a
       57 -18 -63 40 -13 3 18 15 87 -3 -7 -60 -1 27 62 10
000090 35 d8 1f f0 fc f4 03 27 22 cd 08 f9 7f 15 fc 1d
       53 -40 31 -16 -4 -12 3 39 34 -51 8 -7 127 21 -4 29
0000a0 7a ef 02 19 1d 37 ae d3 00 dc ea 24 35 2b e2 e9
       122 -17 2 25 29 55 -82 -45 0 -36 -22 36 53 43 -30 -23
0000b0 81 f3 df c0 bb b9 51 5d e0 2d 00 03 eb ed 18 22
       -127 -13 -33 -64 -69 -71 81 93 -32 45 0 3 -21 -19 24 34
0000c0 0f ee ec af fb 18 81 08 cc 29 1d f9 16 00 5b e9
       15 -18 -20 -81 -5 24 -127 8 -52 41 29 -7 22 0 91 -23
0000d0 df 1c 17 00 f0 f2 06 0e ff 05 da fb 08 bf e7 01
       -33 28 23 0 -16 -14 6 14 -1 5 -38 -5 8 -65 -25 1
0000e0 26 05 63 43 3f 7f 82 43 ea 31 b3 09 2e 34 31 b9
       38 5 99 67 63 127 -126 67 -22 49 -77 9 46 52 49 -71
0000f0 2c 01 a0 14 f4 e7 30 f7 16 ed c6 f4 b3 3c f9 d0
       44 1 -96 20 -12 -25 48 -9 22 -19 -58 -12 -77 60 -7 -48

ConvBnFusion_W_base_net.3.3.weight_scale f4 [32]
000000 f9 cd e1 3a 58 84 39 3b 82 37 38 3b da 22 4d 3b
       0.0017227522 0.0028307643 0.0028109257 0.003130129
000010 a2 18 74 3b d9 c1 1f 3b 53 dd a8 3b 32 c2 3b 3b
       0.0037246128 0.0024377017 0.005153337 0.0028649685
000020 07 8f 07 3b e3 16 26 3b 88 38 3a 3b c7 f6 b6 3b
       0.0020684616 0.0025343231 0.0028415043 0.0055836174
000030 65 e6 fa 3a 7c 69 b8 3b 26 26 75 3b 1e a1 92 3b
       0.0019142149 0.005627809 0.0037406771 0.004474773
000040 48 c4 82 3b 1b 9d 62 3b 9e 41 a7 3a eb 0f 69 3b
       0.0039906837 0.0034578505 0.0012760644 0.0035562466
000050 47 17 38 3b 63 0a 83 3b 4c 5b 28 3b c9 39 95 3b
       0.0028090046 0.003999041 0.0025689183 0.0045540077
000060 8c cb 62 3b fa df 86 3b 05 18 b6 3a 46 78 82 3a
       0.0034606187 0.0041160556 0.0013892656 0.0009954057
000070 2a 15 73 3b 21 5a 8c 3a d0 d3 b8 3b a3 ed ff 3a
       0.0037091472 0.0010708013 0.0056404844 0.0019525777

ConvBnFusion_W_base_net.4.0.weight_quantized i1 [32, 1, 3, 3]
000000 15 67 0f 35 7f eb 12 18 d0 4d 68 2b 4f 7f 3e 1d
       21 103 15 53 127 -21 18 24 -48 77 104 43 79 127 62 29
000010 32 23 de c0 b9 2e 78 7f f3 aa b4 ef b9 d6 bb 81
       50 35 -34 -64 -71 46 120 127 -13 -86 -76 -17 -71 -42 -69 -127
000020 c6 b9 ab e4 e2 c2 cf b7 81 c0 d4 b2 db ff 1c 40
       -58 -71 -85 -28 -30 -62 -49 -73 -127 -64 -44 -78 -37 -1 28 64
000030 b9 7f 4d f4 5f f0 39 52 3c 50 7f 5d 17 32 28 28
       -71 127 77 -12 95 -16 57 82 60 80 127 93 23 50 40 40
000040 35 22 2a 7f 4d 1e 5d 22 cd a4 cf ae 81 ae b9 cb
       53 34 42 127 77 30 93 34 -51 -92 -49 -82 -127 -82 -71 -53
000050 f9 dc cd 03 b6 81 cf ca 86 d9 f7 e7 0d 00 0b 60
       -7 -36 -51 3 -74 -127 -49 -54 -122 -39 -9 -25 13 0 11 96
000060 fb 42 7f 0f 21 2e 1d 71 7f f7 3a 50 a5 8a ce 91
       -5 66 127 15 33 46 29 113 127 -9 58 80 -91 -118 -50 -111
000070 81 e2 f8 ff fe 28 67 40 35 7f 4d 1d 3f 23 02 d3
       -127 -30 -8 -1 -2 40 103 64 53 127 77 29 63 35 2 -45
000080 de bb 93 12 fd 56 7f fd 0b f8 2f 52 f0 54 7f f0
       -34 -69 -109 18 -3 86 127 -3 11 -8 47 82 -16 84 127 -16
000090 3b 7f 5c 1f 6f 6c f3 ce e1 09 fa 0a 58 78 32 5c
       59 127 92 31 111 108 -13 -50 -31 9 -6 10 88 120 50 92
0000a0 7f 45 04 19 47 f0 1a 7f f4 17 55 72 5e 10 7f 77
       127 69 4 25 71 -16 26 127 -12 23 85 114 94 16 127 119
0000b0 17 2c 3b 10 48 65 19 02 d3 ab b4 81 a4 3c 7f 57
       23 44 59 16 72 101 25 2 -45 -85 -76 -127 -92 60 127 87
0000c0 2e 7c 5e f2 02 0a f0 18 29 e7 e7 7f 29 af 36 f0
       46 124 94 -14 2 10 -16 24 41 -25 -25 127 41 -81 54 -16
0000d0 f3 eb 2e 67 4c 44 7f 55 da f1 28 0f 5a 6e 33 7f
       -13 -21 46 103 76 68 127 85 -38 -15 40 15 90 110 51 127
0000e0 5a 38 58 2b 6d 7f 1b 3f 47 1e 12 fb f9 13 c9 81
       90 56 88 43 109 127 27 63 71 30 18 -5 -7 19 -55 -127
0000f0 09 d0 91 e7 31 7f df de 49 00 d0 fe 33 64 32 43
       9 -48 -111 -25 49 127 -33 -34 73 0 -48 -2 51 100 50 67

ConvBnFusion_W_base_net.4.0.weight_scale f4 [32]
000000 aa d1 09 3c 89 05 90 3b 72 b6 d0 3b 51 21 98 3b
       0.008411804 0.004395191 0.0063694054 0.0046426435
000010 d1 06 85 3b e0 88 e0 3b 98 db d4 3b 70 3b d0 3b
       0.0040596505 0.0068522543 0.006495904 0.0063547418
000020 46 08 f2 3b 59 bc a4 3b 73 45 bd 3b 67 1a ad 3b
       0.00738624 0.0050273356 0.0057761013 0.0052826884
000030 5a 3d ee 3b ba 88 8b 3b 25 b0 b0 3b db cd c4 3b
       0.0072704973 0.0042582424 0.005392092 0.006005985
000040 49 3a cc 3b 63 14 a3 3b f6 8a 21 3c 3d 10 9d 3b
       0.006232534 0.0049767955 0.009859791 0.0047931955
000050 23 91 d8 3b 9d 7e e5 3b 83 67 ea 3b 2e 4a 9e 3b
       0.0066090985 0.007003619 0.007153453 0.0048306203
000060 45 41 9e 3b 1c 76 97 3b 44 f4 05 3c 96 7f 55 3c
       0.004829558 0.004622234 0.008175913 0.013030907
000070 3e e9 87 3b cc 9e 1f 3c ed ea a3 3b bc 7c 29 3c
       0.0041476777 0.00974245 0.0050023706 0.01034468

ConvBnFusion_W_base_net.4.3.weight_quantized i1 [64, 32, 1, 1]
000000 9b 57 f0 fd 38 0b f4 11 ad 3a 7f 3c 3c fe 13 13
       -101 87 -16 -3 56 11 -12 17 -83 58 127 60 60 -2 19 19
000010 38 44 e2 4f 14 fa 0b f3 c6 ac fc 23 f1 fe 2d 5f
       56 68 -30 79 20 -6 11 -13 -58 -84 -4 35 -15 -2 45 95
000020 d2 38 ec 4d 8c 22 d0 4f 54 bf de b2 1f 01 c2 21
       -46 56 -20 77 -116 34 -48 79 84 -65 -34 -78 31 1 -62 33
000030 d4 ff 00 a7 b9 7f 3a 2a f6 d7 ff 0d 96 0a 3e 02
       -44 -1 0 -89 -71 127 58 42 -10 -41 -1 13 -106 10 62 2
000040 1d 0a 1c e9 a9 f2 e6 81 07 dd 17 34 fa 79 d2 45
       29 10 28 -23 -87 -14 -26 -127 7 -35 23 52 -6 121 -46 69
000050 02 d1 2b 5c e3 04 eb 62 d3 01 f7 0f af ef 11 0f
       2 -47 43 92 -29 4 -21 98 -45 1 -9 15 -81 -17 17 15
000060 e9 e0 f9 cd 27 7f 15 01 ec e2 c4 15 d7 1d 3a 44
       -23 -32 -7 -51 39 127 21 1 -20 -30 -60 21 -41 29 58 68
000070 ef 1e 01 f2 17 f4 93 e9 17 e9 d4 ca ee f5 04 2e
       -17 30 1 -14 23 -12 -109 -23 23 -23 -44 -54 -18 -11 4 46
000080 7f ee e5 dc fc 24 eb 03 1a ed 14 e4 ec c8 ca f7
       127 -18 -27 -36 -4 36 -21 3 26 -19 20 -28 -20 -56 -54 -9
000090 0d e5 ed 5e ee 07 08 e5 0f c6 eb e6 1e f7 46 3c
       13 -27 -19 94 -18 7 8 -27 15 -58 -21 -26 30 -9 70 60
0000a0 ff 21 2e 81 13 5c b8 02 fe a7 0e 5f 19 a6 c0 c4
       -1 33 46 -127 19 92 -72 2 -2 -89 14 95 25 -90 -64 -60
0000b0 c2 a3 5a 43 1b f5 55 c6 25 1e d4 f8 64 15 d0 08
       -62 -93 90 67 27 -11 85 -58 37 30 -44 -8 100 21 -48 8
0000c0 03 f6 1d 5a 81 f1 10 d2 cf d5 14 78 17 db f7 05
       3 -10 29 90 -127 -15 16 -46 -49 -43 20 120 23 -37 -9 5
0000d0 f9 1e cc 22 f9 ff 06 e0 11 36 16 e9 f3 ba 20 f3
       -7 30 -52 34 -7 -1 6 -32 17 54 22 -23 -13 -70 32 -13
0000e0 d3 7f e4 65 ed db 25 0b ff 41 20 09 44 34 e6 ff
       -45 127 -28 101 -19 -37 37 11 -1 65 32 9 68 52 -26 -1
0000f0 ea de d3 f7 11 1d 0b f8 ec eb f7 df cd fe e6 f9
       -22 -34 -45 -9 17 29 11 -8 -20 -21 -9 -33 -51 -2 -26 -7

ConvBnFusion_W_base_net.4.3.weight_scale f4 [64]
000000 2a 20 a8 3a 53 ca 63 3a 56 31 13 3b 06 ef 4d 3a
       0.0012826968 0.00086895115 0.0022459826 0.00078557467
000010 ab a5 ab 3a 33 12 bd 3a 91 96 16 3b 7a bf b6 3a
       0.0013095638 0.001442498 0.0022977928 0.0013942563
000020 ba 49 e7 3a 5d 51 17 3b 02 f9 05 3b a1 12 01 3b
       0.0017645874 0.0023089268 0.002044261 0.0019694942
000030 f5 7e bd 3a 24 e5 37 3b 8b d4 8e 3a a1 06 fc 3a
       0.0014457392 0.0028060162 0.0010897083 0.001922805
000040 0f 11 0d 3b a1 76 23 3b 63 88 c6 3a 31 81 10 3b
       0.002152506 0.0024942535 0.0015146848 0.002204966
000050 1b 50 f5 3a 39 d4 00 3b f6 a0 2f 3b 39 1f 99 3a
       0.001871589 0.0019657745 0.002679882 0.0011682279
000060 7d 56 47 3b 85 71 1e 3b 98 73 ea 3a 80 ba f2 3a
       0.0030416541 0.002417655 0.0017887233 0.0018518716
000070 06 df 34 3b ff 06 dc 3a 8e 71 04 3b ab d5 96 3b
       0.0027598753 0.0016786753 0.0020209285 0.004603108
000080 d3 ae f7 3a c9 92 a0 3a 59 cf 03 3b 0a 01 c8 3a
       0.0018896706 0.0012250777 0.0020112603 0.0015259099
000090 79 95 30 3b e5 c5 89 3b 7d a9 bd 3a db 73 22 3b
       0.0026944561 0.004204499 0.0014470067 0.0024788294
0000a0 65 90 03 3b 30 a5 58 3a 9c 0f 9c 3a a7 d9 c9 3a
       0.002007508 0.0008264361 0.0011906507 0.0015399948
0000b0 5b 09 90 3b 02 d0 3f 3b 02 97 c0 3a 86 1b 12 3a
       0.0043956465 0.002926827 0.0014693441 0.00055735593
0000c0 24 1b ac 3a cd b2 db 3a ba 78 5d 3b 12 0c 02 3b
       0.0013130647 0.0016761661 0.0033793882 0.001984362
0000d0 f5 0c f8 3a 66 fe 33 3b 56 ca f8 3a b3 41 fc 3a
       0.001892476 0.0027464866 0.0018981199 0.0019245654
0000e0 1b fd 38 3b fc 13 65 3a b8 a7 1f 3b d3 ff e5 3a
       0.0028227034 0.00087386346 0.0024361443 0.0017547555
0000f0 d4 d5 c9 3a 3b fa 3c 3b 96 d4 c2 3a a5 21 9c 3a
       0.0015398809 0.0028835672 0.0014864381 0.0011911882

ConvBnFusion_W_base_net.5.0.weight_quantized i1 [64, 1, 3, 3]
000000 ed 0b ea bd b1 14 13 7f 6a 0f 7f 19 fb 2a e0 d8
       -19 11 -22 -67 -79 20 19 127 106 15 127 25 -5 42 -32 -40
000010 83 d1 f3 fb db f1 a0 d6 27 7f 4c 03 fc 00 15 7f
       -125 -47 -13 -5 -37 -15 -96 -42 39 127 76 3 -4 0 21 127
000020 05 ff f8 fe fe f5 ec 0f 81 48 e7 f2 f2 07 06 0a
       5 -1 -8 -2 -2 -11 -20 15 -127 72 -25 -14 -14 7 6 10
000030 0a 7f 1f f7 df 11 03 f6 09 02 e6 f5 09 7f 09 27
       10 127 31 -9 -33 17 3 -10 9 2 -26 -11 9 127 9 39
000040 a8 be a3 7f 2c 15 63 30 f3 10 0b 2d b4 f1 7f 0f
       -88 -66 -93 127 44 21 99 48 -13 16 11 45 -76 -15 127 15
000050 e8 06 5f 24 17 7f 0d d1 21 de 7f e1 b3 d2 1a 0f
       -24 6 95 36 23 127 13 -47 33 -34 127 -31 -77 -46 26 15
000060 f0 e0 13 15 4b ef eb 7f fd f0 28 f7 71 ff b1 5a
       -16 -32 19 21 75 -17 -21 127 -3 -16 40 -9 113 -1 -79 90
000070 81 c7 33 e5 f3 e1 2f f6 3f 81 f9 d8 a0 ed 0b 36
       -127 -57 51 -27 -13 -31 47 -10 63 -127 -7 -40 -96 -19 11 54
000080 f3 7f df 01 72 8d e8 e2 6a 1c 62 7f 2a 51 e3 1d
       -13 127 -33 1 114 -115 -24 -30 106 28 98 127 42 81 -29 29
000090 ef e8 f0 e6 7f c5 dd 2b b0 0e e3 fa 18 7f fc 06
       -17 -24 -16 -26 127 -59 -35 43 -80 14 -29 -6 24 127 -4 6
0000a0 f0 ed fe 0d fe fc 7f ff f9 e7 0c 24 7f 09 c0 54
       -16 -19 -2 13 -2 -4 127 -1 -7 -25 12 36 127 9 -64 84
0000b0 04 e1 d8 f6 0a 03 f5 7f e9 f4 fc f4 01 10 6f ee
       4 -31 -40 -10 10 3 -11 127 -23 -12 -4 -12 1 16 111 -18
0000c0 21 7f c3 0e af 03 ee 21 ff 4c f2 16 7f 2f 06 0a
       33 127 -61 14 -81 3 -18 33 -1 76 -14 22 127 47 6 10
0000d0 e4 01 19 ec fa 12 7f 00 f8 07 e8 f1 e5 ed f6 7f
       -28 1 25 -20 -6 18 127 0 -8 7 -24 -15 -27 -19 -10 127
0000e0 30 fc 02 fb f6 0f f2 fc 7f 0e e3 cd 07 ff 08 7f
       48 -4 2 -5 -10 15 -14 -4 127 14 -29 -51 7 -1 8 127
0000f0 e8 d8 f5 f0 30 02 e1 bf f8 0b 55 7f e1 ad cb 81
       -24 -40 -11 -16 48 2 -31 -65 -8 11 85 127 -31 -83 -53 -127

ConvBnFusion_W_base_net.5.0.weight_scale f4 [64]
000000 0c bc 3e 3c bf b5 57 3c b1 ca 17 3c 78 ae 38 3d
       0.011641514 0.01316589 0.009264634 0.04508826
000010 c8 93 b6 3c 99 90 77 3c 3c 34 85 3c bd 28 54 3c
       0.022287264 0.015110158 0.016260259 0.012949166
000020 06 5c 79 3c fa cc 4b 3c 4c 36 7a 3c fd 87 7a 3c
       0.015219694 0.012439007 0.015271734 0.015291211
000030 90 da 3b 3c 98 bc 39 3c c3 5b 44 3c b2 8b a5 3b
       0.011465684 0.011336468 0.011984768 0.0050520534
000040 1a ff 39 3c 9a 39 6c 3c 0c 52 d2 3c 66 61 ed 3b
       0.011352325 0.01441803 0.025673889 0.007244277
000050 07 b2 87 3c 09 12 4e 3c 3b 50 14 3c 18 58 b3 3c
       0.016564382 0.012577542 0.009052332 0.021892592
000060 43 e5 8c 3c 65 e4 8b 3c 5d 83 54 3c c2 9a 2d 3c
       0.017199164 0.01707668 0.012970773 0.010595979
000070 1e d0 d5 3b cb b6 09 3c 34 68 81 3c 5d 93 05 3c
       0.0065250536 0.008405398 0.015796758 0.00815281
000080 1f 9c a4 3c 61 9f 05 3d 79 52 cb 3b 28 7f 3d 3c
       0.020093976 0.0326227 0.0062049 0.011565961
000090 5d d7 38 3c 9d 4a 38 3c 47 a1 bd 3c df 1b 8e 3c
       0.011281815 0.011248258 0.023148192 0.017347274
0000a0 f8 6d 67 3c 7b ce ea 3c ca eb 9b 3c 80 10 8a 3c
       0.01412534 0.02866291 0.019033331 0.016853571
0000b0 7e 6c b8 3b 57 8f 50 3c d5 38 a9 3c 7f 82 f9 3c
       0.0056281677 0.012729487 0.020656982 0.030457733
0000c0 b0 a6 56 3c 53 19 0a 3c cf f4 ac 3b 50 75 38 3c
       0.013101265 0.008428889 0.005278207 0.011258438
0000d0 6e 35 76 3c 9a cc 88 3c 0e 16 39 3c 96 91 63 3c
       0.015027387 0.016699124 0.011296762 0.013889691
0000e0 3f c2 4d 3c a0 6a f2 3c c9 1f 09 3c bd fc 91 3c
       0.012558519 0.029591858 0.008369395 0.01782071
0000f0 e0 f0 1f 3c ed 9a 47 3c 51 11 8c 3c be 3e 9f 3c
       0.009762019 0.012182933 0.0170981 0.019439097

ConvBnFusion_W_base_net.5.3.weight_quantized i1 [64, 64, 1, 1]
000000 28 ed 16 fe f3 f4 0f fd fa c5 75 81 15 e0 2c ea
       40 -19 22 -2 -13 -12 15 -3 -6 -59 117 -127 21 -32 44 -22
000010 01 60 17 c2 cb e7 2c ef cf f0 22 b3 c8 0d f1 42
       1 96 23 -62 -53 -25 44 -17 -49 -16 34 -77 -56 13 -15 66
000020 45 26 25 30 52 f5 27 cf 6e e4 1d e7 f3 8f 0e de
       69 38 37 48 82 -11 39 -49 110 -28 29 -25 -13 -113 14 -34
000030 06 c7 0f 33 27 1f f8 39 05 e7 db 04 e9 0c ec 94
       6 -57 15 51 39 31 -8 57 5 -25 -37 4 -23 12 -20 -108
000040 ff c2 df 0e cf 02 42 7f cd b0 51 ed 18 07 ea ef
       -1 -62 -33 14 -49 2 66 127 -51 -80 81 -19 24 7 -22 -17
000050 06 2c 1a 8a ba 4d c1 ce 06 d5 d6 ff 01 45 f1 e3
       6 44 26 -118 -70 77 -63 -50 6 -43 -42 -1 1 69 -15 -29
000060 e7 0c 06 26 17 c5 3b ff 3b 27 c7 d0 97 b4 f4 f0
       -25 12 6 38 23 -59 59 -1 59 39 -57 -48 -105 -76 -12 -16
000070 10 29 06 35 15 0b 41 15 0b cb ee 3e 1e c2 ec 0b
       16 41 6 53 21 11 65 21 11 -53 -18 62 30 -62 -20 11
000080 4b 27 e4 2d 0f 10 f5 e6 de 01 87 f1 89 2a e4 c2
       75 39 -28 45 15 16 -11 -26 -34 1 -121 -15 -119 42 -28 -62
000090 a1 72 d1 a0 16 cc 0c ea 6c 08 bc fa 0a d5 52 ed
       -95 114 -47 -96 22 -52 12 -22 108 8 -68 -6 10 -43 82 -19
0000a0 15 02 50 47 35 d9 db e4 01 3a bf 81 66 c8 ab 77
       21 2 80 71 53 -39 -37 -28 1 58 -65 -127 102 -56 -85 119
0000b0 59 44 f5 aa cc 53 45 82 f6 83 3f 0d 1b e8 13 4d
       89 68 -11 -86 -52 83 69 -126 -10 -125 63 13 27 -24 19 77
0000c0 f0 eb e0 ed 7f a3 95 e1 42 af 51 d6 92 e3 f2 ea
       -16 -21 -32 -19 127 -93 -107 -31 66 -81 81 -42 -110 -29 -14 -22
0000d0 55 52 d2 f5 84 36 08 08 1f f9 2a ea d4 af c3 e4
       85 82 -46 -11 -124 54 8 8 31 -7 42 -22 -44 -81 -61 -28
0000e0 e8 f5 f6 f1 05 14 aa 24 ef ca e3 b5 da 0e 2e 23
       -24 -11 -10 -15 5 20 -86 36 -17 -54 -29 -75 -38 14 46 35
0000f0 f1 fe ef 39 23 6e e8 f8 fc 1e ff ff 10 46 38 be
       -15 -2 -17 57 35 110 -24 -8 -4 30 -1 -1 16 70 56 -66

ConvBnFusion_W_base_net.5.3.weight_scale f4 [64]
000000 7e 9a 09 3b 5e 0b 12 3b ab ec 9e 3a 2b 10 1d 3b
       0.0020996626 0.0022284607 0.0012124976 0.0023965936
000010 96 34 fe 3a d8 f5 5c 3b ad ac 07 3b fd 0f b2 3a
       0.0019394334 0.003371587 0.0020702288 0.0013585087
000020 52 8a 42 3b 4a e5 c8 3a 0e 10 3a 3b 3f f7 03 3b
       0.0029684496 0.0015327123 0.0028390917 0.0020136384
000030 fd dd 06 3b f0 ff c0 3a 34 db 49 3b 9c ea b5 3a
       0.0020579093 0.0014724713 0.0030800821 0.0013879123
000040 78 b4 b2 3a ab 64 5a 3b 44 84 db 3a ba 13 89 3a
       0.0013634106 0.0033324163 0.0016747792 0.001045815
000050 19 55 00 3b 3e 35 fe 3a 09 b9 6e 3a 14 f8 f5 3a
       0.0019581972 0.001939453 0.0009106552 0.001876595
000060 98 c9 79 3b a4 f8 fc 3a 54 f0 24 3b db 77 37 3b
       0.0038114544 0.0019300175 0.002516766 0.0027995023
000070 a3 bd 0e 3b 6d 6f 5f 3a ab d1 0a 3b ad cc 46 3b
       0.0021780513 0.00085233786 0.00211821 0.0030334399
000080 9a 9e 86 3a 46 93 12 3b 3d e7 e7 3a 66 cd 32 3b
       0.0010270656 0.0022365614 0.0017692816 0.0027283072
000090 92 ab 28 3b f7 6d 06 3b d9 e4 b5 3a 6d 8c 02 3b
       0.002573703 0.0020512321 0.0013877406 0.0019920126
0000a0 70 f3 57 3b f2 5d 87 3b cb d2 99 3a 54 c8 d2 3a
       0.0032951497 0.004131072 0.0011735795 0.0016081431
0000b0 89 ef 40 3b 6b 87 f4 3a 3f a6 8c 3a cf 75 81 3a
       0.002943965 0.001865608 0.0010730698 0.0009877029
0000c0 73 e2 2e 3b 6f 4b 9d 3a 13 98 42 3b 39 52 60 3a
       0.0026685267 0.001200063 0.0029692694 0.0008557174
0000d0 be 5b fc 3a 2b c2 2c 3b a7 b0 f5 3a 55 2b aa 3a
       0.0019253416 0.002636085 0.0018744663 0.0012982885
0000e0 87 0e a3 3b df ee 54 3b 61 94 07 3b af 77 fc 3a
       0.004976097 0.003249101 0.0020687806 0.0019261743
0000f0 e8 b0 cc 3a af 32 e8 3a e5 a2 27 3b 32 c5 38 3b
       0.0015616687 0.00177153 0.002557927 0.002819371
